backend/models/tictactoe_model_qlearning.pt (torch, 11309 bytes, 6 tensors)

fc1.weight f4 [36, 9]
00000000: 5b3f 88be 56e8 87be d11d 98be 479e 063d
00000010: e3b0 7fbd 67ae 263e 9625 42be b7b8 22be
00000020: f202 e73f bb6b c3be 5f1d 123e e3fa d1be
00000030: 8cdd c93f c5b4 ad3e e2f7 20bf bb0c 85be
00000040: 269d 1a3e 96d9 b3be 1bf6 c83e 63f7 53be
00000050: 98d6 e6be c34b 5abf 753b f2be 1907 09bf
00000060: 8f11 0d3f f9d4 d5bd 4e94 123c fa52 8c3e
00000070: 4084 403e a256 6a3e 9103 b9bd a08e b03e
00000080: a544 0dc0 1aa4 0c3e bc6e 773e dd66 1c3e
00000090: 8802 18be 4503 6ebe 1987 bebe 9a9a 4dbe
000000a0: 4675 e93f 125d b4be f33e afbe 4922 8fbe
000000b0: e1c7 87be e868 dc3e 06da 043d 2c40 d63e
000000c0: 1cb8 c13e 79e0 183f bf42 cf3e a1bc b63e
000000d0: 4406 0ac0 e9e1 e83e 5c0b 163f cfc9 4f3c
000000e0: 7efa 2dbf 2eef d43d 81ab d43e 7fe4 33bf
000000f0: d313 193e 01ba 083e a0a7 a0bf 8a0a 5a3e
00000100: 7f62 373e be42 f9bf 36c9 9b3d b85d 793e
00000110: f241 223e 9de2 333d 0842 aabd 6028 2d3e
00000120: 5d33 d03f 00f0 c0be 1c3a 1a3e e152 a0bd
00000130: 14bd aebe 3f8e cc3d fed9 7cbe 0915 c9be
00000140: 7e53 8f3d d350 79be fb74 c5be 1e11 d13f
00000150: aa25 a3be 4d70 a6be 1e42 ecbe e8e1 0abf
00000160: 7e0b 67be 04f0 b9be 13ea 56bf 5383 37bf
00000170: 2f66 15bf 3243 19bf 5666 42bf 0248 2ebf
00000180: 2a50 febe a01c e1be 4be4 1fbf fed7 6a3f
00000190: 57e9 8dbe 4052 2ebf fef7 743f 85fa 0cbf
000001a0: 6cdc d2be 4abc 7c3f b832 b7be b779 f9be
000001b0: 33df b2be c4cf cabe 87d0 83be 0206 4abe
000001c0: 1ea4 2dbe 1bc5 c5bd 73af a3be eafb f03f
000001d0: 4e18 22be 14f8 213e 2676 083d e7cc 903d
000001e0: 8cb4 fb3e 9bda b9bd 8159 df3e ec05 a13f
000001f0: 5f04 a33f 62ed a63f 678c b73f 4d70 d23e
00000200: a253 9d3e bec6 1c3e 42ae 953e da16 6c3e
00000210: 3e14 1bbf fa9b f43d a57f 4c3e dc0f 87bd
00000220: 99d6 7d3c 5613 a73e 0dbe c83f bb01 fcbe
00000230: 2e08 123e 56dd 48be edfd debe dcde 39be
00000240: 732e 63bf 27e0 893f 7e95 c83e cf69 e73d
00000250: 1fee 18be 743b bc3d 4a7c 66bd 3c0d 573e
00000260: 803e a4bd 3b8a 05be 8438 42be bb2b 89be
00000270: 7864 90be 9633 c1be 7355 f73f 307f 8bbe
00000280: 7831 96be 9eb5 cabb 5a3a 83bf d7eb 9cbf
00000290: 66dd 6cbf 251d a3bf 76d1 18bf d2a2 a4bf
000002a0: 11b6 bebf bb3d c9bf 211a bebf 0e82 93bd
000002b0: 331b 14be fc36 253f c7ca e7bd cc32 98be
000002c0: 0e0a 1a3f 8e37 dbbf 9a6b 31be e796 133f
000002d0: c2aa 0fc0 17f6 9e3d b8b2 8f3e f121 83bd
000002e0: 23ee c43d 7c8a 863e 2a95 163e 53ef f9bc
000002f0: 9646 853e 0f40 b43e b294 e93e 3f35 0b3f
00000300: b47a 07c0 f881 033f abeb 3f3e 0470 053f
00000310: f87e 9a3e 32a1 003e 006b aabf 63cd 07bf
00000320: eaa5 32bf 687b 12bf b870 943e 9367 25bf
00000330: 475b 27bf ec60 e1be 6bb6 893e a1a9 143d
00000340: c17d de3f 17ef e6bd bc50 e1be 4959 a43b
00000350: 7141 10bd ab6e 95be b267 5dbc f460 933e
00000360: 6c67 94bf e9fa f3be 346a b0be 2fa9 8d3e
00000370: 8874 8f3d 326a 1c3e 2a36 19bd 3e5f 593e
00000380: a7f1 f13d 9d1d 7dbe 8d13 823e 5a4b 64be
00000390: 58f0 5abb 0675 c73e 0bac 053d 9c76 02c0
000003a0: 4bc6 053f 7b93 a0be b38c 7f3d 3844 b4bd
000003b0: 27c5 42be 424a 32bb 6280 b6bf b0ca 0a3d
000003c0: f824 813e b01b a63e ed9f 573f b824 4fbf
000003d0: a238 1ebf b327 f7be 87e8 593e 2f0f f1be
000003e0: 6033 163d c36c 663f 4811 b5be 291a d4be
000003f0: ae50 893e fce7 303e d240 e9be 37fd 733e
-0.26610836 -0.26544446 -0.29710248 0.03286579 -0.06242455 0.16277467 -0.1895965 -0.15890776
1.8047774 -0.3816813 0.14269017 -0.41011724 1.5770736 0.3392698 -0.6287824 -0.25986275
0.1509901 -0.35126942 0.39250264 -0.2069984 -0.45085597 -0.85271853 -0.47310987 -0.53526455
0.5510492 -0.10441012 0.008946491 0.27407056 0.1880045 0.2288461 -0.09033883 0.34483814
-2.2073147 0.13734475 0.24163336 0.15273614 -0.14844716 -0.23243435 -0.37212446 -0.20078507
1.8238914 -0.35227257 -0.34227714 -0.27955845 -0.26519683 0.43048787 0.032434486 0.41845834
0.37835777 0.5971752 0.4048061 0.35690787 -2.1566324 0.45484856 0.58611083 0.012682392
-0.67960346 0.103971824 0.41537097 -0.7027053 0.14948969 0.13352205 -1.2551155 0.21293083
0.17908667 -1.9473493 0.07606737 0.24352157 0.15845469 0.043917287 -0.08313376 0.16909933
1.6265675 -0.37683105 0.1506123 -0.07828308 -0.3412863 0.09988069 -0.24692532 -0.3927386
0.06998347 -0.24347238 -0.38565812 1.6333349 -0.31864673 -0.32507554 -0.46144193 -0.54250956
-0.22562978 -0.3631593 -0.8395092 -0.7168476 -0.58359045 -0.59868157 -0.759374 -0.68078625
-0.49670535 -0.43967152 -0.6245772 0.9173583 -0.27717087 -0.68094254 0.95690906 -0.5506976
-0.41183794 0.98724806 -0.35780883 -0.48725674 -0.34935912 -0.39611638 -0.2574503 -0.19728854
-0.16957137 -0.096567355 -0.31969795 1.8826878 -0.15829584 0.1581729 0.0333158 0.07070332
0.49161184 -0.09074899 0.43622974 1.2579932 1.2735709 1.3041193 1.4339722 0.41101304
0.3072787 0.15310189 0.2923451 0.23055592 -0.6057776 0.11943813 0.19970568 -0.06594822
0.015493059 0.3263194 1.5682999 -0.4922007 0.14260933 -0.19615683 -0.43553105 -0.1815142
-0.8874275 1.0771531 0.39176553 0.11299478 -0.14934586 0.09191027 -0.056270875 0.21001142
-0.080197334 -0.13041012 -0.18966872 -0.26791176 -0.28201652 -0.3773467 1.9322952 -0.27245474
-0.29334617 -0.0061862012 -1.0252182 -1.2259473 -0.9252533 -1.2743269 -0.5969461 -1.2862189
-1.4899312 -1.5721964 -1.4851724 -0.0720254 -0.144635 0.64537024 -0.113179736 -0.29726255
0.6017159 -1.7126329 -0.17326203 0.57652134 -2.2447972 0.07761782 0.2806604 -0.06402958
0.096157335 0.2627753 0.14705339 -0.030509626 0.26030415 0.35205123 0.45621258 0.5437812
-2.1168642 0.5137019 0.18742244 0.5212405 0.30174994 0.12561491 -1.3313904 -0.5304777
-0.69784415 -0.57219553 0.28992248 -0.64611167 -0.65373653 -0.44019258 0.26896986 0.036294583
1.7382127 -0.112760715 -0.44006908 0.0050155264 -0.03521866 -0.29185995 -0.013513492 0.28784907
-1.1594062 -0.47652367 -0.34456027 0.2766814 0.070046484 0.15274885 -0.03740517 0.21227738
0.1181367 -0.24718328 0.2540554 -0.2229437 -0.0033407416 0.3895647 0.032634776 -2.0384893
0.52255696 -0.3136252 0.06239004 -0.08802074 -0.1902052 -0.0027204906 -1.4257929 0.033884704
0.25223517 0.32443 0.842284 -0.80915403 -0.61805165 -0.48272476 0.21280108 -0.47081897
0.03667009 0.9000971 -0.35364747 -0.4142621 0.26819366 0.17275995 -0.45557266 0.23827063

fc1.bias f4 [36]
00000000: 3c36 88be d238 52be aadf 28bc 397f ffbe
00000010: 3cd3 a4be 0b2d 32bf 3273 39bf ee8e 01bf
00000020: 56ec b3bd 17a6 47be bd4e 9c3f b7d6 84bf
00000030: 3f50 6dbe 593c bdbf 20f0 7abe 5d61 b9be
00000040: f8e0 01bf dcf8 a9be b9b2 4e3f b673 25bf
00000050: 1567 1fbf 1edb 1bbf eabd 273e ad3f a5be
00000060: 437b 9cbf a7fb d5be 0d3d 21bf ddf3 2c3e
00000070: ea2b efbe 57e3 32bf a5da d0be 52fa f1be
00000080: c712 0cbf 2127 30bf ea7f 04bf 0ddb b1be
-0.26603878 -0.20529488 -0.010307232 -0.4990175 -0.3219241 -0.6959998 -0.724414 -0.5060872
-0.08785312 -0.19496952 1.2211529 -1.0378026 -0.23175143 -1.4784042 -0.24505663 -0.36207095
-0.507339 -0.33197677 0.8074146 -0.64629686 -0.62266666 -0.6088122 0.1638104 -0.32275143
-1.2225116 -0.41793558 -0.6298378 0.16889901 -0.4671319 -0.69878143 -0.40791813 -0.47261292
-0.5471615 -0.68809706 -0.5175768 -0.34737435

fc2.weight f4 [36, 36]
00000000: 4d42 25bf 8dcc a7bd 612c 773e 449a 04bf
00000010: 667b 103e 0e52 21be d82c 9e3e 1868 c33e
00000020: 40c4 8dbf af5d ee3e f9bf 1d3f c567 2abf
00000030: 06a2 a33e 0ef2 03bf a12b 8cbe e893 1dbe
00000040: 00a1 823d 2cb7 aebe 1fe8 803f a5d7 b83e
00000050: a66b 63bf 2b04 7f3d 6995 89be 5f41 e73e
00000060: c4bd ccbe e1d9 dfbe be4d 71bd 2e63 b63e
00000070: 1d61 f63d a196 143e 1aab fd3d fdf4 163f
00000080: c67c 953d e564 05bd 754e 0abf 05ca 4ebe
00000090: 2131 203e 72a3 ff3d e30e b3be 8371 3e3f
000000a0: 779b 8d3e dec6 67be 499e dcbe ed36 543d
000000b0: d28b 923d 379d 1abe 41c8 8b3c 6cf9 a63e
000000c0: 3bab 46bc 5598 5e3e bb08 913d 39a3 423f
000000d0: 3fe8 183c 940e 563f 527e 04bf 22c6 1abf
000000e0: 762d 913e a3f6 513f a55c a7be 7aaf 29bc
000000f0: fb9a bfbd 6526 7fbe df00 043d f326 8cbd
00000100: 8591 593e 773b f83e 5038 26be e044 3abe
00000110: 8df3 4dbf 5a7e c33e 579a d9bc 8791 853e
00000120: 4df8 a2be 0a48 163e c9aa b43e a1e3 263e
00000130: a566 9fbd 38b4 2fbe e2a0 4b3e 38e2 7ebe
00000140: 1d91 113e 8fe4 0f3d fa62 be3e 2671 83be
00000150: a30b 593f 6eef 1ebe 6b31 143e 0fb9 9fbe
00000160: 9fa1 b2be 1708 9cbf df2e 7c3e f7bb 063d
00000170: 4988 da3c 6d7b 9c3e cce2 213c c03d ea3c
00000180: 95a4 3c3e eea9 f6bd 025a 5d3e d386 8ebe
00000190: 6e23 90bd 2a38 6fbe 04ff af3d 36a0 ac3e
000001a0: 6236 50bd a19b d83e fa93 ff3d 2837 b73c
000001b0: f987 c03e 2d28 a23d 72af 95be e514 fcbd
000001c0: 786e 063d 0b08 4b3e b8a9 b03e bb4b a6be
000001d0: 1456 d6be ad63 10bf 8ad3 0e3f eade ed3d
000001e0: 96ac c73e 48d4 0abf a09b 33be f0fc 013e
000001f0: 5c3a a5be 505e d93e d411 1a3f d4c3 643d
00000200: 5348 60bf 673d adbd dcf6 f73e 0515 a8be
00000210: 7927 be3c 9d5f 33be 01ce 6f3e a7f0 5a3f
00000220: 8c3d 83be eb16 bbbe a170 64be 4634 e6be
00000230: 7b5d e0bc 589c 2dbf 61a1 b8bd 5bf3 50bf
00000240: 49de e0bd 54cf 74bd 1f62 8a3d 7a69 3cbf
00000250: df43 043f 01e2 06bf 2346 083d 71d5 a1bd
00000260: 0e34 c0bd 5dc4 eabe 2cae 493e b44c 8dbd
00000270: a1f4 253e 2fd6 1d3e a7cb 4bbe 14a0 683c
00000280: e5f7 e23e 9676 3b3d 05e3 203f 5200 8c3e
00000290: d322 6e3f 1aa9 043f d2c9 f93c a871 133e
000002a0: c5c3 9b3b 1eac 08bf 0a37 503f fb5e a1be
000002b0: 720c d5be 9219 5ebe 4e5b a8be fb61 283e
000002c0: 0cde 003f 849e 4d3f 1e7a 4ebf a0d8 443c
000002d0: 2d7f ec3f c42e 553d eff1 80bd d9da bc3e
000002e0: de5c a7bd 46d7 6e3e b205 f53e 5e50 27bf
000002f0: 031b 8b3d 9e91 98be 56e0 2f3e f17d b9be
00000300: e7fd 4abe cd86 4abe 21f6 8e3e 3b9d f9bd
00000310: 36c9 4abe 5a98 80be a906 a73e 4db9 9c3d
00000320: a265 f8bd 0e75 a73e 7c45 cd3e 2265 da3d
00000330: fcec f03e e3ab 8c3e 7f41 8a3e 50fb 0cbd
00000340: 0ea2 4abf a082 8fbd 0856 b0bd 5eb2 443c
00000350: f2c3 6e3e a2c8 52be 3196 8c3f ffb9 fc3d
00000360: aacf bcba cbcb 3b3d a2a6 843d 9c37 4dbe
00000370: 1608 db3e a6ea 223f 8f65 2e3d 4b19 06be
00000380: 32f3 a3be 41b0 f6be 9428 be3c 32b0 1bbc
00000390: 6266 4b3f 6959 05bd 8de2 953e 298d 443e
000003a0: 8568 49bd aaad 9ebd 58ff 11be bcef 673f
000003b0: 27b9 c03d aada 7fbe fbe4 10bf 2eda 9b3e
000003c0: ac14 793e 91c7 8d3e 0c1e 923d b849 eb3e
000003d0: c549 a03e 4780 47bd 6f6d 4b3f 7830 9fbe
000003e0: f89f f63e 2f70 2e3e b509 47bf 1e34 59be
000003f0: 370b e03e bcdc 553f 4266 f1be ecc7 003e
-0.6455429 -0.08193312 0.24138023 -0.5179789 0.14109573 -0.15753958 0.30893588 0.38165355
-1.1075516 0.4655585 0.6162105 -0.6656459 0.31959552 -0.5154122 -0.27377036 -0.15388453
0.063783646 -0.34124124 1.0070838 0.36102024 -0.88836133 0.062259834 -0.26871803 0.45167062
-0.3998853 -0.43720916 -0.05891203 0.35622543 0.12030242 0.14510585 0.12386151 0.5896757
0.07299189 -0.032566924 -0.54025966 -0.20194252 0.15643741 0.124823466 -0.34972295 0.74391955
0.27657673 -0.22634456 -0.43089512 0.051810194 0.07155575 -0.15099035 0.017063262 0.3261217
-0.012125785 0.21737798 0.07081743 0.7603031 0.0093327155 0.83615994 -0.5175525 -0.60458577
0.28354996 0.8201696 -0.3268787 -0.010356778 -0.09355732 -0.2491699 0.032227393 -0.068433665
0.21246918 0.48482868 -0.16232419 -0.18190336 -0.80449754 0.38182336 -0.026562853 0.2608759
-0.31830063 0.14675918 0.3528655 0.16297771 -0.0778325 -0.17158592 0.1988559 -0.24890983
0.14215513 0.03513008 0.37184888 -0.25672263 0.8478338 -0.15521023 0.14471976 -0.31195876
-0.34888932 -1.2189969 0.24627255 0.0328941 0.026676314 0.30562916 0.009880733 0.028593898
0.18422158 -0.1204413 0.21616367 -0.27837238 -0.07038008 -0.23361269 0.08593562 0.3371598
-0.050833113 0.42306235 0.12479396 0.022365168 0.3760374 0.07917819 -0.29235417 -0.12308673
0.032820195 0.19827287 0.34504485 -0.32479653 -0.41862547 -0.56402093 0.55791533 0.11614783
0.3899886 -0.54230165 -0.17539835 0.12694144 -0.32271087 0.42454767 0.60183454 0.05585082
-0.8761036 -0.08458977 0.48430526 -0.32828537 0.023212181 -0.17516942 0.23418428 0.85523456
-0.25632894 -0.36540923 -0.2230859 -0.44961756 -0.027388325 -0.67816687 -0.090151556 -0.8162133
-0.109798975 -0.059768036 0.06756996 -0.73598444 0.51666063 -0.52688605 0.033270013 -0.07902039
-0.09384929 -0.45852938 0.19695348 -0.068993956 0.162066 0.15413736 -0.19901906 0.014198322
0.44329754 0.04576739 0.62846404 0.27343994 0.9302189 0.5182053 0.030491743 0.14398825
0.004753562 -0.5338763 0.8133398 -0.31517777 -0.41611058 -0.21689442 -0.3288216 0.16443627
0.50338817 0.8032 -0.80655086 0.012014538 1.8476311 0.052046552 -0.06296145 0.36885718
-0.0817201 0.23324308 0.47855908 -0.65357006 0.067922615 -0.29798597 0.17175421 -0.36228898
-0.19823419 -0.19777985 0.27922156 -0.121881925 -0.19803318 -0.25116235 0.3262227 0.07652531
-0.1212876 0.32706493 0.40092075 0.10663821 0.47055805 0.2747489 0.27003095 -0.034419358
-0.79153526 -0.070073366 -0.08610159 0.012005417 0.23316935 -0.20584348 1.0983335 0.123401634
-0.001440515 0.04584865 0.06477095 -0.20040745 0.42779607 0.63639295 0.042577323 -0.13095586
-0.3202148 -0.48181346 0.023212709 -0.009502457 0.794531 -0.03255597 0.29274407 0.19194473
-0.049171943 -0.077479675 -0.14257562 0.9060018 0.09410315 -0.24985757 -0.56599396 0.30439895
0.24324292 0.2769132 0.07134637 0.4595468 0.31306282 -0.04870632 0.7946386 -0.31091666
0.4816892 0.17034982 -0.77749187 -0.21211287 0.43758556 0.8353994 -0.4714833 0.12576264

fc2.bias f4 [36]
00000000: 1490 0040 9063 d4be 49f5 933e 256d bb3f
00000010: ac94 023e ca01 b03d f7de 51be d6f4 16bf
00000020: 3145 973e b37b ad3f fcbb 153c c1af 643f
00000030: be30 ea3e 2a55 2c3f 907b 08bf 76d2 d8be
00000040: c43c 9f3e 2d72 a1be e598 203f 2588 c83f
00000050: 38e8 95bd 53d4 debb 38a2 9fbe 3fd8 eebe
00000060: 02cf 303e 9a0c 45be ba9d aebd f8b8 aebd
00000070: 508b 493f 542f eb3f cd75 db3e ba1d 74bd
00000080: 3a8f e4be 62a7 8ebd 3e8a 063e 5b1c 57bd
2.0087938 -0.4148221 0.28898075 1.4642683 0.12752026 0.08594091 -0.2049521 -0.5896734
0.29544976 1.3553375 0.009139057 0.8933068 0.45740312 0.6731745 -0.5331354 -0.4234807
0.31101048 -0.31532422 0.627333 1.5666548 -0.07319683 -0.0068002134 -0.3117845 -0.46649358
0.17266467 -0.19243088 -0.08526178 -0.08531374 0.787282 1.8373818 0.42863312 -0.059598662
-0.44640523 -0.069655195 0.13138673 -0.052517276

output_layer.weight f4 [9, 36]
00000000: c06f a43f c500 26bf b906 08bf 1ef0 6f3f
00000010: 2e7e 4dbf 2088 5abd cfcb 26be 25bc d63d
00000020: 9844 14bf 88e7 abbf 3a5a 0bbf 32ef 48bf
00000030: 7dec 2c3f f244 4bbd b206 143e 9ed8 8a3e
00000040: 0e50 0e3e 1387 99bf 905c 11bd 7520 aa3e
00000050: c201 9cbd cd43 ba3e 2d7b c43e b2dd 38bf
00000060: 469c 9abe 6aa4 83bc c63b 9dbf 253f aabe
00000070: 26ad eabe 35b6 dc3e 9fe1 9bbd 525b aa3d
00000080: 18be 383f 7034 de3e e20c 2e3e fff5 f23e
00000090: 5494 8a3e e831 49be 83a0 d53e feef 6a3f
000000a0: 5ef1 92bf 879b b13e 7571 2dbe 1a2f 70be
000000b0: 5979 81bc 514a 383f f922 613f 393e a33d
000000c0: 2843 94be 65da 063f cfdc 0dbf 36fa f9be
000000d0: c641 9bbe 3e69 d23b d613 a1bf 9d8b e0be
000000e0: 6918 58be cbaa 513e 8de1 42be e5e8 68bf
000000f0: 1efd a43e c294 be3d 93b3 3b3f 0563 b8bf
00000100: 7e8e 07bf ed08 333f c1ab 033f 5f32 b5bd
00000110: 54cd d13e 7bde 37bd c906 cbbd ddee 0dbf
00000120: 8e10 cdbd 59e6 8bbe 3bba f73d 4e83 423f
00000130: bde2 a23e 2338 333f 97c1 ad3e 68b8 8cbe
00000140: fa0e 6b3e 8efb af3e eb55 dabe 0a19 6d3f
00000150: 01f9 96bf 6f74 21bf 8843 05bf 27a6 1abf
00000160: e08e b0be 3e9a b0bf 5ae6 0d3f 540a be3d
00000170: 6ba7 ffbd 9b0e e43c 742e 89bf 6225 54bf
00000180: 73e6 563e 2301 5abc df2c 08bf 3bdf 013f
00000190: c0d3 03bf 9e92 5c3f e9e7 05bf c751 77bc
000001a0: 59f5 85bf a230 aabd 1520 493f 4c61 f13e
000001b0: b4e9 793e dc7a 5fbf 86c8 d33e 19c9 0e3f
000001c0: 9257 0cbf e222 dbbe 161b 903d edd9 88bf
000001d0: 0ded a5be 0bdf 6c3c 2acb 09be 2781 1a3f
000001e0: c248 323f 322d d73d c879 01bf cf9b a73d
000001f0: d622 58bf c5d2 ef3d 2ac9 0b3d 9272 17bd
00000200: 5e00 72be 37a0 00c0 0c86 3f3f 5ec4 49bf
00000210: 7b73 c33e 43ab db3d d9ff 563e 63da 073e
00000220: 9ee9 803f 6f7c c83e f597 d8be 86e4 1b3f
00000230: 1c2a bbbe 34f7 983e 45a8 893d 3067 993e
00000240: c693 a43d 57ee 943d c784 4d3e 97f0 ea3e
00000250: d072 58bf fae6 cebe e8e6 d3be 8987 b0bf
00000260: 9df5 cd3e 2943 12bf e952 39bf d221 09bf
00000270: 372d febe a467 903f 48f7 f63e d28d f1be
00000280: 1e03 a93f 85a5 953d 58d4 b03f abab cabe
00000290: ab8e 91bb 550c 9ebe 1085 4dbf 04c6 2dbf
000002a0: 80e6 16bf 6d19 cdbd 400b f23e e2b3 88be
000002b0: 79bd 873f b002 a03f ef73 913d 469e 8bbe
000002c0: 542f 573f 6723 a5be ea4e c1be dfae 56bf
000002d0: 875a 743f 99b9 91bf 9911 733f 7023 8c3e
000002e0: 90f3 e73e 476f 0ebc 8aca edbd bb9d aabe
000002f0: 9e36 29bf 4e6f 573f c3be 313f a8de a9bf
00000300: 3ece 41bf 80e5 6d3e 8458 e5be 5080 603e
00000310: 49d3 87be 5591 3cbf 79f3 8dbe 45fb e0be
00000320: 55a0 bbbc fb60 113b 570a 133e 9371 f93e
00000330: 1677 db3c 697e 8dbd 4d76 76be 9d82 ab3c
00000340: 7dad 4d3f 4ca8 893f 4ae2 8fbf a737 37bf
00000350: 9ef0 97be 706f ec3e 6f0d 64bf 76c7 793e
00000360: 9ed7 d43e 84b9 ac3e 69d6 373e 9f4a 393f
00000370: f290 243e 13fd 143e 368a 7dbf 5064 b3be
00000380: 87e6 f2bf 2334 8a3e 3fcd c3be aed6 25bd
00000390: 375d bc3e 51b9 efbd 215c c8be b5e2 a3bf
000003a0: 7f8a c6bd f7ab 6bbc ae03 7d3e 8480 d53e
000003b0: 0073 123d 12f0 19bc 47f7 d1be 32f2 7d3e
000003c0: 8665 b43e 0389 88bc 794c 74bc 32c3 683e
000003d0: d366 16bf 70df b93e 62b5 4b3f ef31 073e
000003e0: 859c 77bf 74ea 7c3e 59f0 c7bf 9233 433f
000003f0: f049 d33e 8de0 7bbd 4bbc 26bf a882 df3d
1.2846603 -0.64844924 -0.5313526 0.93725765 -0.8027066 -0.053352475 -0.16288684 0.104851045
-0.57917166 -1.3430033 -0.5443455 -0.78489983 0.6754835 -0.0496263 0.14455679 0.2711839
0.13897726 -1.1994346 -0.035488665 0.33227888 -0.07617523 0.36379853 0.38375226 -0.7221328
-0.30197352 -0.01606961 -1.2283866 -0.332513 -0.45835227 0.43107763 -0.07611393 0.08318199
0.7216506 0.43399382 0.16997102 0.47453305 0.2706629 -0.19647944 0.41724023 0.9177245
-1.147991 0.3468897 -0.16937812 -0.23455468 -0.015804933 0.719884 0.8794399 0.079708524
-0.28957486 0.52676994 -0.5541505 -0.48823708 -0.3032362 0.0064212373 -1.2584178 -0.43856516
-0.21103062 0.20475309 -0.19031353 -0.9098037 0.32224363 0.09305717 0.73320884 -1.4405218
-0.529518 0.69935495 0.5143395 -0.08847498 0.40976965 -0.04488991 -0.099134035 -0.554426
-0.10012923 -0.2732418 0.120960675 0.75981605 0.31813613 0.7000753 0.3393676 -0.2748444
0.22954932 0.34371608 -0.42643675 0.9261633 -1.179474 -0.6306829 -0.5205617 -0.6040978
-0.34484005 -1.3797071 0.55429614 0.09279314 -0.12483104 0.027838996 -1.0717301 -0.8286954
0.20986347 -0.013305935 -0.5319347 0.5073125 -0.5149498 0.8616122 -0.5230699 -0.015095181
-1.0465499 -0.08310057 0.7856458 0.47144544 0.24405557 -0.87296844 0.41363925 0.557756
-0.5482112 -0.4280005 0.07036416 -1.0691506 -0.32407418 0.014457474 -0.13456407 0.6035332
0.6964227 0.10506667 -0.5057645 0.08184015 -0.84428155 0.11710123 0.034127392 -0.036974497
-0.23632953 -2.0097787 0.74813914 -0.7881526 0.38174042 0.10726025 0.20996036 0.13266902
1.0071294 0.39157435 -0.42303434 0.60895574 -0.36555564 0.298761 0.06721548 0.29961538
0.08035998 0.07272022 0.20070182 0.4588668 -0.8455019 -0.40410596 -0.41387105 -1.3791362
0.4022645 -0.5713373 -0.72392136 -0.5356723 -0.4964387 1.1281629 0.48235536 -0.47178513
1.3204076 0.07306961 1.3814802 -0.39584097 -0.004442056 -0.30868784 -0.8028116 -0.6788027
-0.58945465 -0.10014615 0.47274208 -0.2669974 1.0604697 1.250082 0.07102191 -0.2726919
0.8405659 -0.32253572 -0.3775552 -0.8386058 0.95450634 -1.1384765 0.94948727 0.27370787
0.4530301 -0.008693523 -0.11610897 -0.33323464 -0.66098964 0.8415421 0.69431704 -1.3271074
-0.75705326 0.23232079 -0.44794095 0.21923947 -0.26528385 -0.7365926 -0.27724817 -0.43941703
-0.0229036 0.002218305 0.14359413 0.48719463 0.026790183 -0.069088764 -0.24068566 0.020936305
0.8034285 1.0754485 -1.1240933 -0.71569294 -0.29675764 0.4617877 -0.89083 0.24392495
0.41570753 0.33735287 0.17952885 0.7237949 0.16070917 0.14549665 -0.9903902 -0.3503747
-1.8976601 0.26992902 -0.38242528 -0.040487938 0.36789867 -0.11705268 -0.3913279 -1.280356
-0.09694385 -0.014384261 0.24708435 0.41699612 0.035754204 -0.009395616 -0.4100897 0.24799421
0.35233706 -0.016666895 -0.014910811 0.22730711 -0.5875065 0.36303282 0.79573643 0.13202642
-0.96723205 0.24698812 -1.5620223 0.76250565 0.41267347 -0.061493445 -0.6513106 0.109135926

output_layer.bias f4 [9]
00000000: abd8 9c3e 9250 ec3e e98d 903e 1f46 093e
00000010: 7bad 9a3e 5769 d33c fa04 8b3e fa4a a63d
00000020: d17a 973e
0.30634055 0.4615522 0.2823327 0.13405655 0.3021048 0.025807066 0.27152234 0.081197694
0.2958589
